PreModel(
  (encoder): DeeperGCN(
    (node_encoder): Sequential(
      (0): Linear(in_features=121, out_features=128, bias=True)
      (1): LayerNorm((128,), eps=1e-05, elementwise_affine=True)
    )
    (gcn_blocks): ModuleList(
      (0): ModuleList(
        (0): DeepGCNLayerV2(block=res+)
        (1): DeepGCNLayerV2(block=res+)
        (2): DeepGCNLayerV2(block=res+)
        (3): DeepGCNLayerV2(block=res+)
        (4): DeepGCNLayerV2(block=res+)
        (5): DeepGCNLayerV2(block=res+)
        (6): DeepGCNLayerV2(block=res+)
        (7): DeepGCNLayerV2(block=res+)
        (8): DeepGCNLayerV2(block=res+)
        (9): DeepGCNLayerV2(block=res+)
        (10): DeepGCNLayerV2(block=res+)
        (11): DeepGCNLayerV2(block=res+)
        (12): DeepGCNLayerV2(block=res+)
        (13): DeepGCNLayerV2(block=res+)
        (14): DeepGCNLayerV2(block=res+)
        (15): DeepGCNLayerV2(block=res+)
      )
    )
    (edge_encoder): Sequential(
      (0): Linear(in_features=11, out_features=128, bias=True)
      (1): LayerNorm((128,), eps=1e-05, elementwise_affine=True)
    )
  )
  (decoder): DeeperGCN(
    (node_encoder): Sequential(
      (0): Linear(in_features=128, out_features=121, bias=True)
      (1): LayerNorm((121,), eps=1e-05, elementwise_affine=True)
    )
    (gcn_blocks): ModuleList(
      (0): ModuleList(
        (0): DeepGCNLayerV2(block=res+)
      )
    )
    (edge_encoder): Sequential(
      (0): Linear(in_features=128, out_features=11, bias=True)
      (1): LayerNorm((11,), eps=1e-05, elementwise_affine=True)
    )
    (edge_decoder): Linear(in_features=121, out_features=11, bias=True)
  )
  (encoder2decoder_nodes): Linear(in_features=128, out_features=128, bias=False)
  (encoder2decoder_edges): Linear(in_features=128, out_features=128, bias=False)
)
loading processed data...
add degrees as node features for each sample...
in val dataloader...

val:Ep0000|| Loss: 1.13754

in train dataloader...

val:Ep0000|| Loss: 0.04546


trn:Ep0000|| Loss: 0.12895


val:Ep0001|| Loss: 0.02159


trn:Ep0001|| Loss: 0.02955


val:Ep0002|| Loss: 0.01729


trn:Ep0002|| Loss: 0.01938


val:Ep0003|| Loss: 0.01489


trn:Ep0003|| Loss: 0.01611
…
