…
  "entry_pairs_file": "./dataset/DrugBank/binary_1vs1/entry_pairs.csv",
  "gpus": 0,
  "model_type": "deepdrug",
  "pair_labels_file": "./dataset/DrugBank/binary_1vs1/pair_labels.csv",
  "save_folder": "./output/DrugBank/binary_1vs1/all_cluster/",
  "scheduler_ReduceLROnPlateau_tracking": "F1",
  "split_strat": "sample_from_all_clusters",
  "task_type": "binary",
  "y_pred_file": "./output/DrugBank/binary_1vs1/all_cluster/test_pred.csv",
  "y_transfrom_func": null,
  "y_true_file": "./output/DrugBank/binary_1vs1/all_cluster/test_true.csv"
}
DeepDrug(
  (gconv1): DeeperGCN(
    (node_encoder): Sequential(
      (0): Linear(in_features=121, out_features=128, bias=True)
      (1): LayerNorm((128,), eps=1e-05, elementwise_affine=True)
    )
    (gcn_blocks): ModuleList(
      (0): ModuleList(
        (0): DeepGCNLayerV2(block=res+)
        (1): DeepGCNLayerV2(block=res+)
      )
    )
    (edge_encoder): Sequential(
      (0): Linear(in_features=11, out_features=128, bias=True)
      (1): LayerNorm((128,), eps=1e-05, elementwise_affine=True)
    )
  )
  (gconv1_seq): CNN(
    (conv): ModuleList(
      (0): Conv1d(67, 32, kernel_size=(4,), stride=(1,))
      (1): Conv1d(32, 64, kernel_size=(6,), stride=(1,))
      (2): Conv1d(64, 96, kernel_size=(8,), stride=(1,))
    )
    (fc1): Linear(in_features=96, out_features=128, bias=True)
  )
  (gconv2): DeeperGCN(
    (node_encoder): Sequential(
      (0): Linear(in_features=121, out_features=128, bias=True)
      (1): LayerNorm((128,), eps=1e-05, elementwise_affine=True)
    )
    (gcn_blocks): ModuleList(
      (0): ModuleList(
        (0): DeepGCNLayerV2(block=res+)
        (1): DeepGCNLayerV2(block=res+)
      )
    )
    (edge_encoder): Sequential(
      (0): Linear(in_features=11, out_features=128, bias=True)
      (1): LayerNorm((128,), eps=1e-05, elementwise_affine=True)
    )
  )
  (gconv2_seq): CNN(
    (conv): ModuleList(
      (0): Conv1d(67, 32, kernel_size=(4,), stride=(1,))
      (1): Conv1d(32, 64, kernel_size=(6,), stride=(1,))
      (2): Conv1d(64, 96, kernel_size=(8,), stride=(1,))
    )
    (fc1): Linear(in_features=96, out_features=128, bias=True)
  )
  (global_fc_nn): Sequential(
    (0): Linear(in_features=512, out_features=128, bias=True)
    (1): BatchNorm1d(128, eps=1e-05, momentum=0.1, affine=True, track_running_stats=True)
    (2): Dropout(p=0.2, inplace=False)
    (3): ReLU()
    (4): Linear(in_features=128, out_features=32, bias=True)
    (5): BatchNorm1d(32, eps=1e-05, momentum=0.1, affine=True, track_running_stats=True)
    (6): Dropout(p=0.2, inplace=False)
    (7): ReLU()
  )
  (fc2): Linear(in_features=32, out_features=1, bias=True)
)
PreModel(
  (encoder): DeeperGCN(
    (node_encoder): Sequential(
      (0): Linear(in_features=121, out_features=128, bias=True)
      (1): LayerNorm((128,), eps=1e-05, elementwise_affine=True)
    )
    (gcn_blocks): ModuleList(
      (0): ModuleList(
        (0): DeepGCNLayerV2(block=res+)
        (1): DeepGCNLayerV2(block=res+)
      )
    )
    (edge_encoder): Sequential(
      (0): Linear(in_features=11, out_features=128, bias=True)
      (1): LayerNorm((128,), eps=1e-05, elementwise_affine=True)
    )
  )
  (decoder): DeeperGCN(
    (node_encoder): Sequential(
      (0): Linear(in_features=128, out_features=121, bias=True)
      (1): LayerNorm((121,), eps=1e-05, elementwise_affine=True)
    )
    (gcn_blocks): ModuleList(
      (0): ModuleList(
        (0): DeepGCNLayerV2(block=res+)
      )
    )
    (edge_encoder): Sequential(
      (0): Linear(in_features=128, out_features=11, bias=True)
      (1): LayerNorm((11,), eps=1e-05, elementwise_affine=True)
    )
    (edge_decoder): Linear(in_features=121, out_features=11, bias=True)
  )
  (encoder2decoder_nodes): Linear(in_features=128, out_features=128, bias=False)
  (encoder2decoder_edges): Linear(in_features=128, out_features=128, bias=False)
)
PreModel(
  (encoder): DeeperGCN(
    (node_encoder): Sequential(
      (0): Linear(in_features=121, out_features=128, bias=True)
      (1): LayerNorm((128,), eps=1e-05, elementwise_affine=True)
    )
    (gcn_blocks): ModuleList(
      (0): ModuleList(
        (0): DeepGCNLayerV2(block=res+)
        (1): DeepGCNLayerV2(block=res+)
      )
    )
    (edge_encoder): Sequential(
      (0): Linear(in_features=11, out_features=128, bias=True)
      (1): LayerNorm((128,), eps=1e-05, elementwise_affine=True)
    )
  )
  (decoder): DeeperGCN(
    (node_encoder): Sequential(
      (0): Linear(in_features=128, out_features=121, bias=True)
      (1): LayerNorm((121,), eps=1e-05, elementwise_affine=True)
    )
    (gcn_blocks): ModuleList(
      (0): ModuleList(
        (0): DeepGCNLayerV2(block=res+)
      )
    )
    (edge_encoder): Sequential(
      (0): Linear(in_features=128, out_features=11, bias=True)
      (1): LayerNorm((11,), eps=1e-05, elementwise_affine=True)
    )
    (edge_decoder): Linear(in_features=121, out_features=11, bias=True)
  )
  (encoder2decoder_nodes): Linear(in_features=128, out_features=128, bias=False)
  (encoder2decoder_edges): Linear(in_features=128, out_features=128, bias=False)
)
SMILESEnc2Dec(
  (encoder): CNN(
    (conv): ModuleList(
      (0): Conv1d(67, 32, kernel_size=(4,), stride=(1,))
      (1): Conv1d(32, 64, kernel_size=(6,), stride=(1,))
      (2): Conv1d(64, 96, kernel_size=(8,), stride=(1,))
    )
  )
  (decoder): CNN(
    (conv): ModuleList(
      (0): Conv1d(96, 96, kernel_size=(8,), stride=(1,))
      (1): Conv1d(96, 64, kernel_size=(6,), stride=(1,))
      (2): Conv1d(64, 67, kernel_size=(4,), stride=(1,))
    )
  )
  (decoder_pred): Linear(in_features=170, out_features=200, bias=True)
)
SMILESEnc2Dec(
  (encoder): CNN(
    (conv): ModuleList(
      (0): Conv1d(67, 32, kernel_size=(4,), stride=(1,))
      (1): Conv1d(32, 64, kernel_size=(6,), stride=(1,))
      (2): Conv1d(64, 96, kernel_size=(8,), stride=(1,))
    )
  )
  (decoder): CNN(
    (conv): ModuleList(
      (0): Conv1d(96, 96, kernel_size=(8,), stride=(1,))
      (1): Conv1d(96, 64, kernel_size=(6,), stride=(1,))
      (2): Conv1d(64, 67, kernel_size=(4,), stride=(1,))
    )
  )
  (decoder_pred): Linear(in_features=170, out_features=200, bias=True)
)
preparing dataset...
loading processed data...
add degrees as node features for each sample...
using drug sequences file: ./dataset/DrugBank/drug
print save parquet file to load quickly next time at ./dataset/DrugBank/drug/drug.parquet
                                        SMILES                                              entry
drugID                                                                                           
…
trn:Ep0019|| F1: 0.932,auROC 0.979,auPRC: 0.976

val:Ep0020|| F1: 0.630,auROC 0.822,auPRC: 0.818

trn:Ep0020|| F1: 0.933,auROC 0.980,auPRC: 0.977

val:Ep0021|| F1: 0.646,auROC 0.816,auPRC: 0.812

trn:Ep0021|| F1: 0.934,auROC 0.981,auPRC: 0.978

val:Ep0022|| F1: 0.640,auROC 0.815,auPRC: 0.811
Epoch 00024: reducing learning rate of group 0 to 1.0000e-04.

trn:Ep0022|| F1: 0.936,auROC 0.981,auPRC: 0.979

val:Ep0023|| F1: 0.669,auROC 0.823,auPRC: 0.822
loading best weight in /home/s1950841/MAEDDI/output/DrugBank/binary_1vs1/all_cluster/models/epoch=13-step=13608.ckpt ...
DeepDrug(
  (gconv1): DeeperGCN(
    (node_encoder): Sequential(
      (0): Linear(in_features=121, out_features=128, bias=True)
      (1): LayerNorm((128,), eps=1e-05, elementwise_affine=True)
    )
    (gcn_blocks): ModuleList(
      (0): ModuleList(
        (0): DeepGCNLayerV2(block=res+)
        (1): DeepGCNLayerV2(block=res+)
      )
    )
    (edge_encoder): Sequential(
      (0): Linear(in_features=11, out_features=128, bias=True)
      (1): LayerNorm((128,), eps=1e-05, elementwise_affine=True)
    )
  )
  (gconv1_seq): CNN(
    (conv): ModuleList(
      (0): Conv1d(67, 32, kernel_size=(4,), stride=(1,))
      (1): Conv1d(32, 64, kernel_size=(6,), stride=(1,))
      (2): Conv1d(64, 96, kernel_size=(8,), stride=(1,))
    )
    (fc1): Linear(in_features=96, out_features=128, bias=True)
  )
  (gconv2): DeeperGCN(
    (node_encoder): Sequential(
      (0): Linear(in_features=121, out_features=128, bias=True)
      (1): LayerNorm((128,), eps=1e-05, elementwise_affine=True)
    )
    (gcn_blocks): ModuleList(
      (0): ModuleList(
        (0): DeepGCNLayerV2(block=res+)
        (1): DeepGCNLayerV2(block=res+)
      )
    )
    (edge_encoder): Sequential(
      (0): Linear(in_features=11, out_features=128, bias=True)
      (1): LayerNorm((128,), eps=1e-05, elementwise_affine=True)
    )
  )
  (gconv2_seq): CNN(
    (conv): ModuleList(
      (0): Conv1d(67, 32, kernel_size=(4,), stride=(1,))
      (1): Conv1d(32, 64, kernel_size=(6,), stride=(1,))
      (2): Conv1d(64, 96, kernel_size=(8,), stride=(1,))
    )
    (fc1): Linear(in_features=96, out_features=128, bias=True)
  )
  (global_fc_nn): Sequential(
    (0): Linear(in_features=512, out_features=128, bias=True)
    (1): BatchNorm1d(128, eps=1e-05, momentum=0.1, affine=True, track_running_stats=True)
    (2): Dropout(p=0.2, inplace=False)
    (3): ReLU()
    (4): Linear(in_features=128, out_features=32, bias=True)
    (5): BatchNorm1d(32, eps=1e-05, momentum=0.1, affine=True, track_running_stats=True)
    (6): Dropout(p=0.2, inplace=False)
    (7): ReLU()
  )
  (fc2): Linear(in_features=32, out_features=1, bias=True)
)
in test dataloader...

tst:Ep0024|| F1: 0.684,auROC 0.792,auPRC: 0.792
────────────────────────────────────────────────────────────────────────────────────────────────────────────────────────
       Test metric             DataLoader 0
────────────────────────────────────────────────────────────────────────────────────────────────────────────────────────
…
