…
TPU available: False, using: 0 TPU cores
IPU available: False, using: 0 IPUs
HPU available: False, using: 0 HPUs
LOCAL_RANK: 0 - CUDA_VISIBLE_DEVICES: [0]

  | Name      | Type        | Params
------------------------------------------
0 | loss_func | My_MSE_Loss | 0     
1 | model     | PreModel    | 768 K 
------------------------------------------
768 K     Trainable params
0         Non-trainable params
768 K     Total params
3.074     Total estimated model params size (MB)
`Trainer.fit` stopped: `max_epochs=20` reached.
PreModel(
  (encoder): DeeperGCN(
    (node_encoder): Sequential(
      (0): Linear(in_features=121, out_features=128, bias=True)
      (1): LayerNorm((128,), eps=1e-05, elementwise_affine=True)
    )
    (gcn_blocks): ModuleList(
      (0): ModuleList(
        (0): DeepGCNLayerV2(block=res+)
        (1): DeepGCNLayerV2(block=res+)
        (2): DeepGCNLayerV2(block=res+)
        (3): DeepGCNLayerV2(block=res+)
      )
    )
    (edge_encoder): Sequential(
      (0): Linear(in_features=11, out_features=128, bias=True)
      (1): LayerNorm((128,), eps=1e-05, elementwise_affine=True)
    )
  )
  (decoder): DeeperGCN(
    (node_encoder): Sequential(
      (0): Linear(in_features=128, out_features=121, bias=True)
      (1): LayerNorm((121,), eps=1e-05, elementwise_affine=True)
    )
    (gcn_blocks): ModuleList(
      (0): ModuleList(
        (0): DeepGCNLayerV2(block=res+)
      )
    )
    (edge_encoder): Sequential(
      (0): Linear(in_features=128, out_features=11, bias=True)
      (1): LayerNorm((11,), eps=1e-05, elementwise_affine=True)
    )
    (edge_decoder): Linear(in_features=121, out_features=11, bias=True)
  )
  (encoder2decoder_nodes): Linear(in_features=128, out_features=128, bias=False)
  (encoder2decoder_edges): Linear(in_features=128, out_features=128, bias=False)
)

val:Ep0000|| Loss: 1.20701


val:Ep0000|| Loss: 0.03442


trn:Ep0000|| Loss: 0.04251


val:Ep0001|| Loss: 0.03318


trn:Ep0001|| Loss: 0.03378


val:Ep0002|| Loss: 0.03272


trn:Ep0002|| Loss: 0.03275


val:Ep0003|| Loss: 0.03213


trn:Ep0003|| Loss: 0.03223


val:Ep0004|| Loss: 0.03199


trn:Ep0004|| Loss: 0.03192


val:Ep0005|| Loss: 0.03172


trn:Ep0005|| Loss: 0.03172
…
