…
total size is 195.82K  speedup is 4.16
GPU available: True (cuda), used: True
TPU available: False, using: 0 TPU cores
IPU available: False, using: 0 IPUs
HPU available: False, using: 0 HPUs
LOCAL_RANK: 0 - CUDA_VISIBLE_DEVICES: [0]

  | Name      | Type       | Params
-----------------------------------------
0 | loss_func | NTXentLoss | 0     
1 | model     | PreModel   | 734 K 
-----------------------------------------
734 K     Trainable params
0         Non-trainable params
734 K     Total params
2.940     Total estimated model params size (MB)
PreModel(
  (conv): CNN(
    (conv): ModuleList(
      (0): Conv1d(67, 32, kernel_size=(4,), stride=(1,))
      (1): Conv1d(32, 64, kernel_size=(6,), stride=(1,))
      (2): Conv1d(64, 96, kernel_size=(8,), stride=(1,))
    )
    (fc1): Linear(in_features=96, out_features=128, bias=True)
  )
  (gconv): DeeperGCN(
    (node_encoder): Sequential(
      (0): Linear(in_features=121, out_features=128, bias=True)
      (1): LayerNorm((128,), eps=1e-05, elementwise_affine=True)
    )
    (gcn_blocks): ModuleList(
      (0): ModuleList(
        (0): DeepGCNLayerV2(block=res+)
        (1): DeepGCNLayerV2(block=res+)
        (2): DeepGCNLayerV2(block=res+)
        (3): DeepGCNLayerV2(block=res+)
      )
    )
    (edge_encoder): Sequential(
      (0): Linear(in_features=11, out_features=128, bias=True)
      (1): LayerNorm((128,), eps=1e-05, elementwise_affine=True)
    )
  )
  (feat_lin): Linear(in_features=128, out_features=128, bias=True)
  (out_lin): Sequential(
    (0): Linear(in_features=128, out_features=128, bias=True)
    (1): ReLU(inplace=True)
    (2): Linear(in_features=128, out_features=64, bias=True)
  )
)
print save parquet file to load quickly next time at ./dataset/Chemberta/drug/drug.parquet
                                                    SMILES                                              entry
drug_ID                                                                                                      
CM_1       Cc1cccc(N2CCN(C(=O)C34CC5CC(CC(C5)C3)C4)CC2)c1C  [21, 1, 25, 1, 1, 1, 1, 55, 30, 10, 21, 21, 30...
…
