…
        (9): DeepGCNLayerV2(block=res+)
        (10): DeepGCNLayerV2(block=res+)
        (11): DeepGCNLayerV2(block=res+)
        (12): DeepGCNLayerV2(block=res+)
        (13): DeepGCNLayerV2(block=res+)
        (14): DeepGCNLayerV2(block=res+)
        (15): DeepGCNLayerV2(block=res+)
        (16): DeepGCNLayerV2(block=res+)
        (17): DeepGCNLayerV2(block=res+)
        (18): DeepGCNLayerV2(block=res+)
        (19): DeepGCNLayerV2(block=res+)
        (20): DeepGCNLayerV2(block=res+)
        (21): DeepGCNLayerV2(block=res+)
      )
    )
    (edge_encoder): Sequential(
      (0): Linear(in_features=11, out_features=128, bias=True)
      (1): LayerNorm((128,), eps=1e-05, elementwise_affine=True)
    )
  )
  (gconv1_seq): CNN(
    (conv): ModuleList(
      (0): Conv1d(67, 32, kernel_size=(4,), stride=(1,))
      (1): Conv1d(32, 64, kernel_size=(6,), stride=(1,))
      (2): Conv1d(64, 96, kernel_size=(8,), stride=(1,))
    )
    (fc1): Linear(in_features=96, out_features=128, bias=True)
  )
  (gconv2_seq): CNN(
    (conv): ModuleList(
      (0): Conv1d(67, 32, kernel_size=(4,), stride=(1,))
      (1): Conv1d(32, 64, kernel_size=(6,), stride=(1,))
      (2): Conv1d(64, 96, kernel_size=(8,), stride=(1,))
    )
    (fc1): Linear(in_features=96, out_features=128, bias=True)
  )
  (gconv2): DeeperGCN(
    (node_encoder): Sequential(
      (0): Linear(in_features=121, out_features=128, bias=True)
      (1): LayerNorm((128,), eps=1e-05, elementwise_affine=True)
    )
    (gcn_blocks): ModuleList(
      (0): ModuleList(
        (0): DeepGCNLayerV2(block=res+)
        (1): DeepGCNLayerV2(block=res+)
        (2): DeepGCNLayerV2(block=res+)
        (3): DeepGCNLayerV2(block=res+)
        (4): DeepGCNLayerV2(block=res+)
        (5): DeepGCNLayerV2(block=res+)
        (6): DeepGCNLayerV2(block=res+)
        (7): DeepGCNLayerV2(block=res+)
…
        (9): DeepGCNLayerV2(block=res+)
        (10): DeepGCNLayerV2(block=res+)
        (11): DeepGCNLayerV2(block=res+)
        (12): DeepGCNLayerV2(block=res+)
        (13): DeepGCNLayerV2(block=res+)
        (14): DeepGCNLayerV2(block=res+)
        (15): DeepGCNLayerV2(block=res+)
        (16): DeepGCNLayerV2(block=res+)
        (17): DeepGCNLayerV2(block=res+)
        (18): DeepGCNLayerV2(block=res+)
        (19): DeepGCNLayerV2(block=res+)
        (20): DeepGCNLayerV2(block=res+)
        (21): DeepGCNLayerV2(block=res+)
      )
    )
    (edge_encoder): Sequential(
      (0): Linear(in_features=11, out_features=128, bias=True)
      (1): LayerNorm((128,), eps=1e-05, elementwise_affine=True)
    )
  )
  (global_fc_nn): Sequential(
    (0): Linear(in_features=512, out_features=128, bias=True)
    (1): BatchNorm1d(128, eps=1e-05, momentum=0.1, affine=True, track_running_stats=True)
    (2): Dropout(p=0.2, inplace=False)
    (3): ReLU()
    (4): Linear(in_features=128, out_features=32, bias=True)
    (5): BatchNorm1d(32, eps=1e-05, momentum=0.1, affine=True, track_running_stats=True)
    (6): Dropout(p=0.2, inplace=False)
    (7): ReLU()
  )
  (fc2): Linear(in_features=32, out_features=1, bias=True)
)
preparing dataset...
loading processed data...
add degrees as node features for each sample...
using drug sequences file: ./dataset/BIOSNAP/drug
print save parquet file to load quickly next time at ./dataset/BIOSNAP/drug/drug.parquet
                                                       SMILES                                              entry
drugID                                                                                                          
…
